{'depth_zbuffer': NYUCriterions(
  (cosine_similiarity): CosineSimilarity()
  (l1_loss): L1Loss()
  (l1_loss_sum): L1Loss()
  (cross_entropy): CrossEntropyLoss()
)} {'depth_zbuffer': <TreeMTL.data.pixel2pixel_metrics.NYUMetrics object at 0x2aab31da8790>} {'depth_zbuffer': 1}
41 50
quantizable model loaded
MTLModel(
  (backbone): Sequential(
    (0): Conv2d(3, 64, kernel_size=(7, 7), stride=(2, 2), padding=(3, 3), bias=False)
    (1): BatchNorm2d(64, eps=1e-05, momentum=0.1, affine=True, track_running_stats=True)
    (2): ReLU(inplace=True)
    (3): MaxPool2d(kernel_size=3, stride=2, padding=1, dilation=1, ceil_mode=False)
    (4): Sequential(
      (0): BasicBlock(
        (conv1): Conv2d(64, 64, kernel_size=(3, 3), stride=(1, 1), padding=(1, 1), bias=False)
        (bn1): BatchNorm2d(64, eps=1e-05, momentum=0.1, affine=True, track_running_stats=True)
        (relu): ReLU(inplace=True)
        (conv2): Conv2d(64, 64, kernel_size=(3, 3), stride=(1, 1), padding=(1, 1), bias=False)
        (bn2): BatchNorm2d(64, eps=1e-05, momentum=0.1, affine=True, track_running_stats=True)
        (skip_add): FloatFunctional(
          (activation_post_process): Identity()
        )
      )
      (1): BasicBlock(
        (conv1): Conv2d(64, 64, kernel_size=(3, 3), stride=(1, 1), padding=(1, 1), bias=False)
        (bn1): BatchNorm2d(64, eps=1e-05, momentum=0.1, affine=True, track_running_stats=True)
        (relu): ReLU(inplace=True)
        (conv2): Conv2d(64, 64, kernel_size=(3, 3), stride=(1, 1), padding=(1, 1), bias=False)
        (bn2): BatchNorm2d(64, eps=1e-05, momentum=0.1, affine=True, track_running_stats=True)
        (skip_add): FloatFunctional(
          (activation_post_process): Identity()
        )
      )
    )
    (5): Sequential(
      (0): BasicBlock(
        (conv1): Conv2d(64, 128, kernel_size=(3, 3), stride=(2, 2), padding=(1, 1), bias=False)
        (bn1): BatchNorm2d(128, eps=1e-05, momentum=0.1, affine=True, track_running_stats=True)
        (relu): ReLU(inplace=True)
        (conv2): Conv2d(128, 128, kernel_size=(3, 3), stride=(1, 1), padding=(1, 1), bias=False)
        (bn2): BatchNorm2d(128, eps=1e-05, momentum=0.1, affine=True, track_running_stats=True)
        (downsample): Sequential(
          (0): Conv2d(64, 128, kernel_size=(1, 1), stride=(2, 2), bias=False)
          (1): BatchNorm2d(128, eps=1e-05, momentum=0.1, affine=True, track_running_stats=True)
        )
        (skip_add): FloatFunctional(
          (activation_post_process): Identity()
        )
      )
      (1): BasicBlock(
        (conv1): Conv2d(128, 128, kernel_size=(3, 3), stride=(1, 1), padding=(1, 1), bias=False)
        (bn1): BatchNorm2d(128, eps=1e-05, momentum=0.1, affine=True, track_running_stats=True)
        (relu): ReLU(inplace=True)
        (conv2): Conv2d(128, 128, kernel_size=(3, 3), stride=(1, 1), padding=(1, 1), bias=False)
        (bn2): BatchNorm2d(128, eps=1e-05, momentum=0.1, affine=True, track_running_stats=True)
        (skip_add): FloatFunctional(
          (activation_post_process): Identity()
        )
      )
    )
    (6): Sequential(
      (0): BasicBlock(
        (conv1): Conv2d(128, 256, kernel_size=(3, 3), stride=(2, 2), padding=(1, 1), bias=False)
        (bn1): BatchNorm2d(256, eps=1e-05, momentum=0.1, affine=True, track_running_stats=True)
        (relu): ReLU(inplace=True)
        (conv2): Conv2d(256, 256, kernel_size=(3, 3), stride=(1, 1), padding=(1, 1), bias=False)
        (bn2): BatchNorm2d(256, eps=1e-05, momentum=0.1, affine=True, track_running_stats=True)
        (downsample): Sequential(
          (0): Conv2d(128, 256, kernel_size=(1, 1), stride=(2, 2), bias=False)
          (1): BatchNorm2d(256, eps=1e-05, momentum=0.1, affine=True, track_running_stats=True)
        )
        (skip_add): FloatFunctional(
          (activation_post_process): Identity()
        )
      )
      (1): BasicBlock(
        (conv1): Conv2d(256, 256, kernel_size=(3, 3), stride=(1, 1), padding=(1, 1), bias=False)
        (bn1): BatchNorm2d(256, eps=1e-05, momentum=0.1, affine=True, track_running_stats=True)
        (relu): ReLU(inplace=True)
        (conv2): Conv2d(256, 256, kernel_size=(3, 3), stride=(1, 1), padding=(1, 1), bias=False)
        (bn2): BatchNorm2d(256, eps=1e-05, momentum=0.1, affine=True, track_running_stats=True)
        (skip_add): FloatFunctional(
          (activation_post_process): Identity()
        )
      )
    )
    (7): Sequential(
      (0): BasicBlock(
        (conv1): Conv2d(256, 512, kernel_size=(3, 3), stride=(2, 2), padding=(1, 1), bias=False)
        (bn1): BatchNorm2d(512, eps=1e-05, momentum=0.1, affine=True, track_running_stats=True)
        (relu): ReLU(inplace=True)
        (conv2): Conv2d(512, 512, kernel_size=(3, 3), stride=(1, 1), padding=(1, 1), bias=False)
        (bn2): BatchNorm2d(512, eps=1e-05, momentum=0.1, affine=True, track_running_stats=True)
        (downsample): Sequential(
          (0): Conv2d(256, 512, kernel_size=(1, 1), stride=(2, 2), bias=False)
          (1): BatchNorm2d(512, eps=1e-05, momentum=0.1, affine=True, track_running_stats=True)
        )
        (skip_add): FloatFunctional(
          (activation_post_process): Identity()
        )
      )
      (1): BasicBlock(
        (conv1): Conv2d(512, 512, kernel_size=(3, 3), stride=(1, 1), padding=(1, 1), bias=False)
        (bn1): BatchNorm2d(512, eps=1e-05, momentum=0.1, affine=True, track_running_stats=True)
        (relu): ReLU(inplace=True)
        (conv2): Conv2d(512, 512, kernel_size=(3, 3), stride=(1, 1), padding=(1, 1), bias=False)
        (bn2): BatchNorm2d(512, eps=1e-05, momentum=0.1, affine=True, track_running_stats=True)
        (skip_add): FloatFunctional(
          (activation_post_process): Identity()
        )
      )
    )
    (8): QuantStub()
    (9): DeQuantStub()
  )
  (heads): ModuleDict(
    (depth_zbuffer): ASPPHeadNode(
      (fc1): Classification_Module(
        (conv1): Conv2d(512, 1024, kernel_size=(3, 3), stride=(1, 1), padding=(6, 6), dilation=(6, 6))
        (conv2): Conv2d(1024, 1024, kernel_size=(1, 1), stride=(1, 1))
        (conv3): Conv2d(1024, 1, kernel_size=(1, 1), stride=(1, 1))
        (relu): ReLU(inplace=True)
        (dropout): Dropout(p=0.5, inplace=False)
        (quant): QuantStub()
        (dequant): DeQuantStub()
      )
      (fc2): Classification_Module(
        (conv1): Conv2d(512, 1024, kernel_size=(3, 3), stride=(1, 1), padding=(12, 12), dilation=(12, 12))
        (conv2): Conv2d(1024, 1024, kernel_size=(1, 1), stride=(1, 1))
        (conv3): Conv2d(1024, 1, kernel_size=(1, 1), stride=(1, 1))
        (relu): ReLU(inplace=True)
        (dropout): Dropout(p=0.5, inplace=False)
        (quant): QuantStub()
        (dequant): DeQuantStub()
      )
      (fc3): Classification_Module(
        (conv1): Conv2d(512, 1024, kernel_size=(3, 3), stride=(1, 1), padding=(18, 18), dilation=(18, 18))
        (conv2): Conv2d(1024, 1024, kernel_size=(1, 1), stride=(1, 1))
        (conv3): Conv2d(1024, 1, kernel_size=(1, 1), stride=(1, 1))
        (relu): ReLU(inplace=True)
        (dropout): Dropout(p=0.5, inplace=False)
        (quant): QuantStub()
        (dequant): DeQuantStub()
      )
      (fc4): Classification_Module(
        (conv1): Conv2d(512, 1024, kernel_size=(3, 3), stride=(1, 1), padding=(24, 24), dilation=(24, 24))
        (conv2): Conv2d(1024, 1024, kernel_size=(1, 1), stride=(1, 1))
        (conv3): Conv2d(1024, 1, kernel_size=(1, 1), stride=(1, 1))
        (relu): ReLU(inplace=True)
        (dropout): Dropout(p=0.5, inplace=False)
        (quant): QuantStub()
        (dequant): DeQuantStub()
      )
    )
  )
)
prequantization
validating on 41 samples = 
[Iter 2 Task dept] Val Loss: 2.1962
{'abs_err': 2.1422, 'rel_err': 0.7754, 'sigma_1.25': 34.0158, 'sigma_1.25^2': 42.7676, 'sigma_1.25^3': 51.5176}
…
